…
X_trainFlat:  (24000, 49152)
X_trainRos Shape:  (32512, 49152)
X_testRos Shape:  (8202, 49152)
Y_trainRosHot Shape:  (32512, 2)
Y_testRosHot Shape:  (8202, 2)
X_trainRos Shape:  (32512, 49152)
X_trainRosReshaped Shape:  (32512, 128, 128, 3)
X_testRos Shape:  (8202, 49152)
X_testRosReshaped Shape:  (8202, 128, 128, 3)
Old Class Weights:  [0.73684728 1.55553251]
New Class Weights:  [1. 1.]
_________________________________________________________________
Layer (type)                 Output Shape              Param #   
=================================================================
input_1 (InputLayer)         (None, 128, 128, 3)       0         
_________________________________________________________________
block1_conv1 (Conv2D)        (None, 128, 128, 64)      1792      
_________________________________________________________________
block1_conv2 (Conv2D)        (None, 128, 128, 64)      36928     
_________________________________________________________________
block1_pool (MaxPooling2D)   (None, 64, 64, 64)        0         
_________________________________________________________________
block2_conv1 (Conv2D)        (None, 64, 64, 128)       73856     
_________________________________________________________________
block2_conv2 (Conv2D)        (None, 64, 64, 128)       147584    
_________________________________________________________________
block2_pool (MaxPooling2D)   (None, 32, 32, 128)       0         
_________________________________________________________________
block3_conv1 (Conv2D)        (None, 32, 32, 256)       295168    
_________________________________________________________________
block3_conv2 (Conv2D)        (None, 32, 32, 256)       590080    
_________________________________________________________________
block3_conv3 (Conv2D)        (None, 32, 32, 256)       590080    
_________________________________________________________________
block3_pool (MaxPooling2D)   (None, 16, 16, 256)       0         
_________________________________________________________________
block4_conv1 (Conv2D)        (None, 16, 16, 512)       1180160   
_________________________________________________________________
block4_conv2 (Conv2D)        (None, 16, 16, 512)       2359808   
_________________________________________________________________
block4_conv3 (Conv2D)        (None, 16, 16, 512)       2359808   
_________________________________________________________________
block4_pool (MaxPooling2D)   (None, 8, 8, 512)         0         
_________________________________________________________________
block5_conv1 (Conv2D)        (None, 8, 8, 512)         2359808   
_________________________________________________________________
block5_conv2 (Conv2D)        (None, 8, 8, 512)         2359808   
_________________________________________________________________
block5_conv3 (Conv2D)        (None, 8, 8, 512)         2359808   
_________________________________________________________________
block5_pool (MaxPooling2D)   (None, 4, 4, 512)         0         
_________________________________________________________________
flatten_1 (Flatten)          (None, 8192)              0         
_________________________________________________________________
dense_1 (Dense)              (None, 2)                 16386     
=================================================================
Total params: 14,731,074
Trainable params: 16,386
Non-trainable params: 14,714,688
_________________________________________________________________
_________________________________________________________________
Layer (type)                 Output Shape              Param #   
=================================================================
input_1 (InputLayer)         (None, 128, 128, 3)       0         
_________________________________________________________________
block1_conv1 (Conv2D)        (None, 128, 128, 64)      1792      
_________________________________________________________________
block1_conv2 (Conv2D)        (None, 128, 128, 64)      36928     
_________________________________________________________________
block1_pool (MaxPooling2D)   (None, 64, 64, 64)        0         
_________________________________________________________________
block2_conv1 (Conv2D)        (None, 64, 64, 128)       73856     
_________________________________________________________________
block2_conv2 (Conv2D)        (None, 64, 64, 128)       147584    
_________________________________________________________________
block2_pool (MaxPooling2D)   (None, 32, 32, 128)       0         
_________________________________________________________________
block3_conv1 (Conv2D)        (None, 32, 32, 256)       295168    
_________________________________________________________________
block3_conv2 (Conv2D)        (None, 32, 32, 256)       590080    
_________________________________________________________________
block3_conv3 (Conv2D)        (None, 32, 32, 256)       590080    
_________________________________________________________________
block3_pool (MaxPooling2D)   (None, 16, 16, 256)       0         
_________________________________________________________________
block4_conv1 (Conv2D)        (None, 16, 16, 512)       1180160   
_________________________________________________________________
block4_conv2 (Conv2D)        (None, 16, 16, 512)       2359808   
_________________________________________________________________
block4_conv3 (Conv2D)        (None, 16, 16, 512)       2359808   
_________________________________________________________________
block4_pool (MaxPooling2D)   (None, 8, 8, 512)         0         
_________________________________________________________________
block5_conv1 (Conv2D)        (None, 8, 8, 512)         2359808   
_________________________________________________________________
block5_conv2 (Conv2D)        (None, 8, 8, 512)         2359808   
_________________________________________________________________
block5_conv3 (Conv2D)        (None, 8, 8, 512)         2359808   
_________________________________________________________________
block5_pool (MaxPooling2D)   (None, 4, 4, 512)         0         
_________________________________________________________________
flatten_1 (Flatten)          (None, 8192)              0         
_________________________________________________________________
dense_1 (Dense)              (None, 2)                 16386     
=================================================================
Total params: 14,731,074
Trainable params: 16,386
Non-trainable params: 14,714,688
_________________________________________________________________
Train on 32512 samples, validate on 8202 samples
Epoch 1/4

   32/32512 [..............................] - ETA: 22:17 - loss: 0.5106 - acc: 0.7188
   96/32512 [..............................] - ETA: 7:56 - loss: 0.5583 - acc: 0.7083 
…
